model_cnn.pth (torch, 434831 bytes, 8 tensors)

conv1.weight f4 [6, 3, 5, 5]
00000000: 4009 ccbd 5fd7 323d 2faf 6bbc 0f37 49bd
00000010: 958b 643d b40a 8bbd c3fc ae3c ea29 ac3d
00000020: f119 85be 0693 46be 7ed2 a2bc 798b c23d
00000030: a24a 983e 3854 4ebc 9df9 52be 80de 913d
00000040: c2b8 10be d8b8 6f3e 3f76 17be 20e4 493d
00000050: 69bb dd3d e897 1bbe d441 4d3e 71a7 0bbe
00000060: 724c 143b 22fa 963d 4e98 eb3d e179 3b3d
00000070: a68a 683b c316 bdbc 6c3d 673d e2d1 353d
00000080: 6692 693e e392 2abe eecb 163d 6e33 19be
00000090: 679e f13c 2346 ae3e a676 9a3c 34ac 67bd
000000a0: e227 f2bd 6223 16be 43ed 4b3e 7727 7dbd
000000b0: 6a6e c83d a4cb 543d 7734 41be 3316 6c3e
000000c0: 972e 56bd c8e8 c63c 66c0 df3c ebc4 95bd
000000d0: 33cc d4bd 2973 2ebd 9dd7 9c3c ea2c 8fbd
000000e0: 4368 3abc d740 eb3d f163 03be b1af 6fbd
000000f0: 6497 39bd 712d b23c 56ca d83d ba7a 41bd
00000100: b13e ecbd d1c1 45bd a35e 07be 250a 603e
00000110: 4c4a 43bd a228 64bb e7d9 ee3d 18c7 2bbe
00000120: d838 fe3d b4b9 c1bd fefc 8ebc d5c2 833d
00000130: eca5 a4bd ed72 3e3d f182 27be b016 f2bd
00000140: 12cc c3bd 71a5 903d b6e5 11bd 9710 0c3d
00000150: e74f b7bc 789a 203d 144b c6bd 1851 dc3c
00000160: 5be2 6dbd 5402 8b3d fe4e c63d 7f99 96bc
00000170: d897 8dbd ad4b acbd 262d a7bd 4dc4 9ebc
00000180: 2893 69bd 09df acbd 21ff ddbc 1142 9e3d
00000190: 2451 c33d 2548 933d acaf a4bc 9ed4 febd
000001a0: 43f8 003d 073c db3d bc4f f43d 11f8 78bd
000001b0: d00c c2bd af9d b9bd b47e 3b3d 0945 e63d
000001c0: e703 6b3d d24e 2a3b d93d f8bd e15c adbd
000001d0: 3dad 0e3d 422b 43bd bbc8 66bc 8218 9a3d
000001e0: 227c 133b cf7e 6ebc 6f29 28bc ba9b 1e3d
000001f0: 9484 47bd 5e2c 003c d5e7 513d 51f8 b73d
00000200: 63c3 113d da9a 22be 4c5e 0f3e 8524 553e
00000210: 9506 433e 1dfd 593d 30f0 13bd 2792 643e
00000220: bfa1 6c3d c670 c13d d0c0 8dbd 9293 a4bd
00000230: 26f5 233e 5843 403d 8806 d23d a858 30bc
00000240: 384c 2f3c 23d1 3cbc 3599 da3d e900 de3d
00000250: e4f2 42bd 821f 59bd c63d b03b 0dc6 9c3d
00000260: 6874 c93d f580 5f3e a107 f83d 7a2c 0b3d
00000270: 4920 693e a619 5d3e 612c 6b3e ca4c 223d
00000280: 83d8 ba3d 2fca e93d 2ed5 253d cf02 2f3e
00000290: dbab 323e 3fc9 fb3d 5f11 a3bb 8bbc 87bd
000002a0: e192 e53c 9e56 403e 7dc7 ecbd fd3c 3dbe
000002b0: ec47 5ebd 9590 44bd f9fc f63d a703 9bbd
000002c0: f886 a5bb b552 09bd f4c9 fabd b6eb 6cbe
000002d0: 30fc 8dbd 7b6f bfbd b770 b8bd 9573 3fbe
000002e0: 7b1a 9dbd b7a1 42bd 7251 d2bd f17b 85be
000002f0: aea8 7fbe d7ea c7bd 0a61 ab3d f395 c8bd
00000300: 28b4 59be 53d6 7ebd 3931 40bd 058f f73d
00000310: e492 28be fbe1 11be 33cf dbbd b74f a4bd
00000320: 8bca e23d 4b1a abbc a180 2b3c 5c5b 92bd
00000330: c4d0 093e e65c 303e c45e 8cbd c1aa f8bd
00000340: 61c3 cfbd 9452 b43c e500 1b3e 2158 a2bd
00000350: 6c62 f2bb b786 d5bd cbf7 52bd da22 60bc
00000360: 11f5 c3bc ad3c d0bc 89f5 0d3c 28d4 403b
00000370: 45a8 d93d f25c b63d bc74 703d 1207 233e
00000380: e8c5 633e 6403 7dbd a8a6 88bd 81ce 1cbe
00000390: a2e0 e6bb 4175 143c e5f5 253c 4a3f b3bd
000003a0: 8649 20bd 53c2 c5bb b623 a53d 5443 b7bd
000003b0: f316 1b3e 27a9 413d 5263 0e3d 18da f23d
000003c0: e03c 5a3d 9139 3a3e bf61 193e 2177 0b3e
000003d0: fd26 173e 2cbc 4cbc f21c b93b ad79 bc3d
000003e0: cac3 303d 634a a73c 0552 abbd f45c 54bc
000003f0: 29fb e4bd 5d28 eebc 3eb0 c5bb 1db4 33be
-0.09962702 0.043662425 -0.014385029 -0.049124774 0.05579718 -0.06789151 0.02136076 0.08406432
-0.25996354 -0.19392022 -0.019875761 0.094992585 0.2974444 -0.0125933215 -0.20603032 0.07122517
-0.1413298 0.23410356 -0.14791201 0.049289823 0.10826761 -0.15194666 0.20044643 -0.13638093
0.0022628573 0.07371928 0.11503659 0.04577053 0.0035483032 -0.023082143 0.05645506 0.044389613
0.22809753 -0.16657595 0.036815576 -0.14961025 0.029494477 0.34037885 0.018855404 -0.05656071
-0.11824013 -0.14661935 0.19914727 -0.061805215 0.09786685 0.05195202 -0.1886767 0.23055343
-0.052290525 0.02428092 0.027313422 -0.0731295 -0.103905104 -0.042590294 0.019145781 -0.069909886
-0.011377397 0.114869766 -0.12831093 -0.05851716 -0.045310393 0.021750184 0.105854675 -0.04723618
-0.11535395 -0.04828054 -0.13219695 0.2187887 -0.047678277 -0.0034814258 0.11662655 -0.16775167
0.12413186 -0.09459248 -0.01745462 0.06433646 -0.080394596 0.04649632 -0.16358544 -0.118207335
-0.09560408 0.070628054 -0.03561946 0.03419551 -0.022376968 0.039209813 -0.09682289 0.026894137
-0.058077198 0.067875534 0.09683035 -0.01838374 -0.069137275 -0.084128715 -0.08162908 -0.019380713
-0.057025105 -0.08440978 -0.027099194 0.07727445 0.09536961 0.07191495 -0.020103298 -0.12442897
0.03148676 0.10704809 0.119292706 -0.06078345 -0.094751 -0.09063279 0.04577513 0.11243636
0.05737677 0.0025986922 -0.121211715 -0.08464981 0.03483318 -0.047648676 -0.014085944 0.07524206
0.002250441 -0.014556601 -0.010263785 0.03872273 -0.04871042 0.007823078 0.051246483 0.089829095
0.035586726 -0.15879384 0.14000815 0.20814712 0.1904548 0.053219903 -0.036117733 0.22321378
0.05777144 0.09445338 -0.06921542 -0.08035959 0.16011485 0.046939224 0.10255152 -0.010763325
0.010699324 -0.011524471 0.10673753 0.10840017 -0.04759492 -0.053008564 0.0053784577 0.07654963
0.09836656 0.21826537 0.1211083 0.033977963 0.22766222 0.21591815 0.22966148 0.039624013
0.091233276 0.114155166 0.040486507 0.17090915 0.1744837 0.12294244 -0.004976436 -0.066277586
0.028024139 0.18783042 -0.11561487 -0.18480296 -0.05426781 -0.047989447 0.120599695 -0.07569056
-0.00505149 -0.03352614 -0.12245551 -0.23136792 -0.069328666 -0.09347435 -0.09005874 -0.18696435
-0.076710664 -0.047517505 -0.10269441 -0.26071122 -0.2496669 -0.09761589 0.08368118 -0.097942255
-0.2126013 -0.062216114 -0.046921942 0.12087826 -0.16462284 -0.14246361 -0.107328795 -0.08023017
0.11073788 -0.02088656 0.010467679 -0.07146332 0.13458544 0.17222938 -0.068540126 -0.12141944
-0.101446874 0.022012033 0.1513706 -0.079269655 -0.0073969867 -0.104260854 -0.051505845 -0.013680184
-0.023920568 -0.025419557 0.008664497 0.002942333 0.10627798 0.08904447 0.058705077 0.15920666
0.22243464 -0.06177081 -0.06672412 -0.1531315 -0.0070458213 0.009061159 0.010129427 -0.08752306
-0.039132617 -0.006035128 0.08063452 -0.08948389 0.15145473 0.047280457 0.034762688 0.11858004
0.05328071 0.18186022 0.14978693 0.13619663 0.14760967 -0.012496036 0.0056492025 0.09202895
0.04315547 0.020421213 -0.08365253 -0.012961615 -0.111807175 -0.029071981 -0.0060329726 -0.17549177

conv1.bias f4 [6]
00000000: c4ad 173d 0765 dfbb e5d6 773d 0123 6abe
00000010: d66e f0bc 3930 ce3d
0.03703095 -0.0068174633 0.060507674 -0.22864915 -0.029349726 0.100677915

conv2.weight f4 [16, 6, 5, 5]
00000000: ccba 27be 958f 45be 2943 07b9 42f3 5c3d
00000010: 4f9a c63d 60f7 01bd 3eaf b3be 347f 3d3d
00000020: 6fda 103e 575a 4fbd 15f9 893d 3334 613e
00000030: ae02 9bbe a6fc 3f3e 26de 8e3d 8141 353d
00000040: 40cd a43e 861c 983c 8116 89be 0ed5 dd3d
00000050: 3577 cc3c 7013 243e 4822 aa3e 4e3a b6be
00000060: 595d 2fbe 8fe5 b4bd 57bc 29be 086c 133d
00000070: 7b43 313c a820 84bc 5905 413d adca a4bd
00000080: cf30 8dbd 0360 f23b 2f43 69bc 07a1 003e
00000090: b453 a73d 0812 9ebe 3e7e 8cbd c4aa 133e
000000a0: 8eb1 ca3d 4cea f33d 4a53 8dbe a2e8 40be
000000b0: cbdd c53c be40 f23d 35b5 b13d 1b21 9d3d
000000c0: 849d 0c3c bcb2 ad3b d371 283c 12e7 ee3d
000000d0: fa62 9c3c 5ca7 193d e5fa 09be 0667 d6bd
000000e0: 5a52 abbb 96e0 9a3e 3b2c 603d 1e7b 32be
000000f0: 4794 8cbe c565 663a dff4 c93e 6d2e 493d
00000100: 38f2 3bbe ca13 1fbe 8af3 27bd 79c5 a73d
00000110: f33e 2c3e 031e e43d 0eb9 413d 33a6 afbd
00000120: 092a 7dbe ddee 453e 4fb6 393e aab6 d6bc
00000130: f0ac 983d 0bcf 013e 65d4 8ebc 509d 3d3d
00000140: 5618 b1bd b443 12bd a99d 053c 543c f33b
00000150: 7354 c4bc 6ad1 f83d 15ba 30be 74f5 26be
00000160: d644 a53d 8b7b 243d 6301 ab3d f7cb 0fbe
00000170: 611b 83be c95c 0e3e dd64 46bb 6129 ae3c
00000180: fe28 8fbd 165e 06be 8eb4 42bd d405 0c3e
00000190: e03d 8f3d dd18 563d 0f1f 8dbe 3080 783d
000001a0: 115a ac3d f3e0 8a3d 6edb 3b3e ad82 febd
000001b0: 398c 87be 7153 e5bc cb5a e8bd 2121 cd3d
000001c0: f109 9e3e c562 debd f853 babe e413 81bd
000001d0: 2243 46be 307f 883e a998 263e a680 9cbe
000001e0: 982a dabd 3c27 da3b eb41 3fbe 74f3 a33d
000001f0: cef8 52bc 7a64 4c3d 11a1 fe3d 41d5 5fba
00000200: 63e3 8fbd a701 3abd d1e3 febd 63ae 2b3d
00000210: 6d66 3d3e a94f 373b 0209 b0bc 3ed3 d3bc
00000220: fb55 a1be 63da 323e 9d2a 1d3e 22d6 09be
00000230: 0877 3ebd cb6f 96be e86d eebc 34f3 1e3e
00000240: 4dc4 ce3d c048 99bd c54a b53d c330 3fbd
00000250: 3f14 ab3d cd82 373e 6591 6dbd 9c92 c2bc
00000260: 6941 f43c 8ffe dabd a0dc febd 536f b6bd
00000270: 6482 edbd 960a a13d ac96 a43c d76b e7bd
00000280: 78e4 20bd 6aff 59be 75b5 45be e982 50bd
00000290: a4b2 dc3c 6b2b 82bd 8376 b7bd 2a5d 13be
000002a0: bbd6 a7bd cf90 98ba 388f 1bbd 1ec8 96bd
000002b0: 1e40 6d3d 1dda 663d 0024 c5bd 77e9 fbbd
000002c0: 8015 59bd d9ff 713c 03b0 b83c 3540 0d3d
000002d0: 2ae7 35be 63f4 72be c23b e9bd c0dc d33d
000002e0: ae68 413e e326 a9be 4993 abbe ab96 f7bd
000002f0: 31e9 013e f75c 0b3e 3ed4 aebe e57e 49be
00000300: 285d 42be 29ae 253e 05a9 7f3e 64a3 7abe
00000310: eaeb f9bd 3ac2 da3d 711c 833e 2df3 173e
00000320: 5f6f 8bbc 4016 81bc b408 613c a4e3 043e
00000330: 0722 4b3d f3cf c7bd 040b 783d cd86 59bc
00000340: 8049 c2bd 9d43 95be a234 efbd 678d d03c
00000350: c984 453c 642c 6cbe c6af 0dbe 3752 84bd
00000360: d01d afbc 8a74 bebd 75eb 613d 0bb8 05bc
00000370: 2f0a fb3d 009c e0bc 7e6f a9bc cc3e 113c
00000380: 3bda 6f3c b8b2 b33b 9f4e d6bc 7932 793d
00000390: 8412 da3d 38dd 233e 9447 06be 111d 05be
000003a0: 9926 babc 37be 2b3e 6bb9 103e 5d24 d7bd
000003b0: 0654 10be 94bd 583d b0b7 053e 371c 823e
000003c0: d3df 3cbe d2e6 f0bd 0fa3 083b afef e73d
000003d0: d32d 203e a18a d6bd ffb9 4a3c 2f13 8dbc
000003e0: 6449 793d 5c1e a53d 0e9e b03d 4ed9 ca3d
000003f0: 150d 5b3c 5f2e edbc c703 5bbd a0c1 2f3c
-0.16379851 -0.19293053 -0.00012899622 0.053942926 0.09697401 -0.031730056 -0.35094637 0.04626389
0.14145826 -0.050623264 0.06736962 0.21992569 -0.30275482 0.18748721 0.06975965 0.044251923
0.32187843 0.018568289 -0.26774982 0.108316526 0.024959186 0.1602304 0.3322928 -0.35591358
-0.17125453 -0.08832847 -0.16575752 0.0359917 0.010819311 -0.016128853 0.04712424 -0.0804647
-0.06894075 0.0073966994 -0.014237209 0.12561427 0.08170262 -0.30873132 -0.06860016 0.1442061
0.09897147 0.11909923 -0.27602607 -0.18838742 0.02415361 0.11828755 0.086771406 0.0767233
0.0085824765 0.005300848 0.010281044 0.11665167 0.019090164 0.037513122 -0.13474615 -0.10468869
-0.005228323 0.3024947 0.05472968 -0.17429778 -0.27456877 0.00087889686 0.39444634 0.04911654
-0.18354118 -0.15534893 -0.04100374 0.08191962 0.16820888 0.11138537 0.047295623 -0.08576622
-0.24723066 0.193294 0.18135951 -0.026210148 0.0745486 0.12676637 -0.017435262 0.046292603
-0.0864722 -0.035709098 0.008155265 0.007422963 -0.02396605 0.121493176 -0.17258485 -0.1630457
0.0806977 0.040156882 0.08349874 -0.1404265 -0.25606826 0.13902582 -0.0030272522 0.021259965
-0.069902405 -0.13121828 -0.04753547 0.13674098 0.069942236 0.052269805 -0.27562758 0.060669124
0.08415616 0.06781187 0.18345425 -0.12427268 -0.2647417 -0.02799389 -0.113454424 0.100160845
0.3086696 -0.108586825 -0.36392188 -0.06302622 -0.19361547 0.26659536 0.16269173 -0.305669
-0.10652655 0.006657509 -0.1867749 0.080054194 -0.0128767025 0.04990051 0.12433065 -0.0008538552
-0.070257924 -0.045411732 -0.12445796 0.041914355 0.18496104 0.0027971065 -0.02148867 -0.025857564
-0.3151091 0.1746612 0.15348287 -0.13460591 -0.046500236 -0.29382166 -0.029105142 0.15522462
0.10096035 -0.07484579 0.08852152 -0.046677362 0.08353471 0.1792099 -0.057999987 -0.02375155
0.029816346 -0.106930844 -0.12444425 -0.08907952 -0.11597136 0.07863347 0.020091377 -0.11299866
-0.039280385 -0.21288839 -0.19307502 -0.050906096 0.026940651 -0.063559376 -0.08958151 -0.14391008
-0.081952535 -0.0011639836 -0.03797838 -0.07362388 0.057922475 0.056360353 -0.09626007 -0.12300389
-0.05299902 0.0147704715 0.022544866 0.03448506 -0.17763963 -0.23726039 -0.11388351 0.10344839
0.18887588 -0.3303748 -0.33510807 -0.120892845 0.12686612 0.13609682 -0.34146303 -0.19677313
-0.18980849 0.16179718 0.2496682 -0.24476391 -0.122032 0.10681577 0.25607637 0.14838858
-0.01702088 -0.01575768 0.013734985 0.12977463 0.049592998 -0.0975646 0.06055738 -0.013276768
-0.09486675 -0.29153147 -0.11679961 0.02545805 0.012055584 -0.23063809 -0.13836583 -0.06460994
-0.02137652 -0.09299572 0.05515619 -0.008161555 0.12257802 -0.027418137 -0.020683046 0.00886507
0.014639433 0.0054839514 -0.026160536 0.06083915 0.10648063 0.16002357 -0.13113242 -0.12999369
-0.022723483 0.1677178 0.14133231 -0.105049826 -0.14094552 0.05291517 0.13058352 0.2541215
-0.18444757 -0.117627755 0.0020849144 0.11325013 0.1564248 -0.1047566 0.0123734465 -0.017221062
0.060861006 0.08062431 0.086238965 0.09904729 0.013369818 -0.028952776 -0.0534704 0.010727316

conv2.bias f4 [16]
00000000: b703 37bd 7b5c 953c c963 333e ca89 b63c
00000010: 7b28 a3bd b55c 26be f4d8 0abe 89ee 083d
00000020: 889d 9a3d f309 263e badb 953b 866f 9ebd
00000030: 56f0 f63c a053 e43e 99ed 9c3d de10 33bc
-0.044681277 0.018232575 0.17518534 0.0222825 -0.079667054 -0.16246302 -0.13559324 0.03343061
0.07549578 0.16214733 0.0045733126 -0.07736115 0.030143898 0.4459505 0.07662506 -0.010929314

fc1.weight f4 [256, 400]
00000000: d02b 41be 1d5f 67be 7e52 42bd 457f 4cbd
00000010: 50f1 55be 0b17 11be 3fef 5abe 2091 e8bc
00000020: 6d67 33be 782e 69be 7287 14be b3d0 93be
00000030: afa0 e23c 078c 3cbe 7d6d f0bd ae7b b0bd
00000040: 7e26 0dbe 11be 813c 4b5f 7cbe 4dc8 b9bd
00000050: f494 fabd 9054 aabd 8016 7cbe 4137 66be
00000060: 4334 11be dbb0 2bbe f70c 67be 1255 9abe
00000070: 09ca 2dbe e61e 3bbe 1ef4 4ebe 395c 07be
00000080: 2fa8 8dbe 1646 24be 9e26 58be 0321 48be
00000090: c1a8 0fbe 2248 1ebe 0adb 9ebe ea73 14be
000000a0: 91e5 003e 430c 1c3e 0eb7 a4bb 91df 79be
000000b0: 26ea e93c 4f8f af3d 5d80 223e cb95 5d3d
000000c0: 1277 0a3b 1970 f93d dc24 25be feb9 29be
000000d0: efd6 b8bb d18f abbd 1394 0fbe 5034 8bbd
000000e0: 0c70 603c d776 cd3d 42ae 813d 78ac 3ebe
000000f0: 8997 28be d6b3 0c3c de2f 043e 98c8 bdbc
00000100: f14a febc 9b11 a2bd 4143 7c3c 6c4c 2e3e
00000110: c6c6 ba3d b53e a6bd 4bfe dc3d 763c 073e
00000120: b29e a33d 27e7 cf3d eb7c 483c aff9 b33d
00000130: 0d7c 47bc 6b5b 31bd 2314 c5bd efa5 653b
00000140: 359c bebd b2d6 f2bd a43f 85be 7f6c 4ebe
00000150: 66a4 81bd 2df0 99bd 5eb8 c93d 5d13 32bd
00000160: 9627 a73d 19ab ef3d 415d 6ebd b4c8 1b3e
00000170: b6ee d13c 4b61 183d 27c1 a13d 9eff 043e
00000180: 0436 283e 4b19 533e dac3 973e ff60 4e3d
00000190: de20 ecbd c0dd 7bbd 7a85 09be f8a7 09bd
000001a0: d6f7 eb3c be74 47bd 4850 ffbd 7629 66bd
000001b0: 61c5 bfbd fabc 7f3c 78f1 4ebd 61f6 26bd
000001c0: 081a 4abd 68bb fd3c 15ec f33d e205 a03c
000001d0: f0f9 a1bd 6dd6 6d3c 5cc1 c43d 602b 063d
000001e0: 4d6e 94bc e0d3 a9bd 5ae1 ad3c 9b59 813d
000001f0: 4d13 5b3d 2610 0b3d d28c 9bbd c76f 02bd
00000200: d899 63bd 0f86 353d b438 44be 98df 22be
00000210: 0088 f2bd 8e15 4e3d 3ada d63d fe1b 23be
00000220: 838f 10be e156 cabc 3943 4a3b 3b67 aabd
00000230: 5e00 7ebc 4e25 fa3d 29f9 153e 37e0 383d
00000240: 4757 4dbc 4c36 2fbe d1e1 14be 0570 d0bc
00000250: 904d 09be 2562 cfbc 5f94 633e a90c 5fbd
00000260: 9927 ddbc 3c3f efbc c129 db3d 2b8a 213e
00000270: 3d23 aabd 16e7 a0bd a271 583d d3fc 2b3e
00000280: 1e7d 123e b80e 6d3d f249 ddbd 1ae2 0abe
00000290: b650 a9bd 7f1a 563e 9eb8 3f3e a86b 483d
000002a0: bc36 713b aa29 db3c 1021 0a3d fa87 433d
000002b0: 517f 2a3d 0dff 1c3e 180e ab3d a362 1f3c
000002c0: 7373 953d 22c9 973d f917 2e3e 4605 953d
000002d0: 9c64 afbd a192 88bd d2c7 5bbd 4beb 1cbd
000002e0: 3d75 833c d01b fdbd 9b7a 45be 84d8 2fbe
000002f0: cdea d6bd 6549 5c3d 1f81 893d 8c79 ac3d
00000300: 943a f33d 5e28 283e eb2e e13c 654a ea3d
00000310: ef40 de3d 2be0 ce3d 1106 c33b 6e0b 053c
00000320: 8a75 b43d d9cd a33d cc29 5fbd 6fdb b9bd
00000330: 3c96 273d 9418 c63d a152 cd3d ea0d 593d
00000340: 7824 703d 06cd 903d 45c8 ef3d 613d 00bc
00000350: 99f5 6a3d 6c7f 90bc cdd7 ad3a 4094 233d
00000360: 0460 63bd 8054 213c a245 593d 4938 15bd
00000370: 3723 df3d ca94 54bc a733 eebb 7a5b 673b
00000380: 089e 073c 9a8e 4bbe c61f 02be 3e7c 5dbd
00000390: 53de 95be 1c66 f6be 0f1c 6abd b5a0 5fbe
000003a0: 4523 48be 4513 b6bd 2056 e6be 24e5 f03d
000003b0: 4cfb 7bbe cdf9 88be 5eed 09be 412e a6be
000003c0: a7b6 343e 5664 12be db65 eebc ec6e 963d
000003d0: d5d6 debd 5fb4 713e 1156 9dbd a95b afbd
000003e0: d424 df3d 0b35 be3c b9b6 e9bd 31b5 dcbc
000003f0: 1e21 6abe 2068 39be ac47 ec3c 99d0 37be
-0.1886437 -0.22594877 -0.047441952 -0.04992606 -0.20892835 -0.14168946 -0.21380328 -0.028389513
-0.17519923 -0.22771633 -0.14504793 -0.28870162 0.02766451 -0.18412791 -0.11739633 -0.0861734
-0.13784215 0.015837701 -0.24645726 -0.090714075 -0.12235442 -0.0831691 -0.24617958 -0.22482015
-0.14180093 -0.16766684 -0.2256354 -0.30143028 -0.16971602 -0.18273506 -0.20210311 -0.13218774
-0.27667376 -0.1604236 -0.21108481 -0.19543843 -0.14029218 -0.15457204 -0.3102649 -0.14497343
0.12587573 0.15239052 -0.0050267046 -0.2440169 0.028554033 0.08572256 0.15869279 0.05409793
0.00211281 0.12179584 -0.16127342 -0.16574857 -0.0056408565 -0.0837704 -0.1402133 -0.06797087
0.013698589 0.100324325 0.06332065 -0.18620479 -0.16464056 0.008587798 0.12908885 -0.02316694
-0.031041594 -0.07913514 0.015396894 0.1702134 0.09119944 -0.08117429 0.1079069 0.13206658
0.07989253 0.10151511 0.012236814 0.08787858 -0.012175572 -0.043300074 -0.096229814 0.003504153
-0.09307138 -0.11857356 -0.26025116 -0.20158575 -0.06330185 -0.07516513 0.098496184 -0.043475498
0.08161847 0.11702556 -0.058194403 0.15213281 0.025626522 0.03720216 0.07898169 0.12988135
0.16426855 0.20615117 0.2964161 0.05038547 -0.115297064 -0.061490774 -0.13429824 -0.033607453
0.0288047 -0.04869532 -0.12466484 -0.056191884 -0.09363819 0.01560902 -0.05052325 -0.04076231
-0.04934123 0.030973151 0.119102634 0.019534055 -0.07909 0.014516455 0.09607193 0.03275621
-0.018119002 -0.08292365 0.02122562 0.06315919 0.053485204 0.033950947 -0.07595219 -0.03184488
-0.05556664 0.0443173 -0.19162256 -0.15905607 -0.11842346 0.050313525 0.10490842 -0.15928647
-0.14117245 -0.02469963 0.0030862822 -0.08320471 -0.015503017 0.122141466 0.14645828 0.045135703
-0.012533016 -0.17110556 -0.14539267 -0.02544404 -0.13408494 -0.025315354 0.22224568 -0.054455433
-0.02699642 -0.029204957 0.10701323 0.15775363 -0.083075024 -0.07856576 0.052842744 0.16795664
0.14305541 0.057875365 -0.108051196 -0.13562813 -0.082673475 0.20908545 0.1872277 0.048930794
0.0036806306 0.026753265 0.033722937 0.0477371 0.041625325 0.15331669 0.083522975 0.009728107
0.07297411 0.0741141 0.17001332 0.072763965 -0.085641116 -0.06668592 -0.05365736 -0.03831033
0.016047115 -0.123588204 -0.19285052 -0.17172438 -0.104940034 0.053780932 0.06714081 0.08421621
0.11876407 0.16421649 0.027488193 0.11439971 0.10852229 0.101013504 0.005951651 0.008120401
0.08811481 0.07998247 -0.05448322 -0.09075057 0.04091476 0.09672657 0.10025526 0.052991785
0.05862853 0.07070355 0.1170812 -0.007827134 0.057363126 -0.017638884 0.0013263166 0.039936304
-0.05551149 0.0098468065 0.053044923 -0.03643063 0.108953886 -0.012974927 -0.007269341 0.0035302327
0.008277424 -0.19878617 -0.12707433 -0.054073565 -0.29271182 -0.48124778 -0.057155665 -0.21838649
-0.19544704 -0.08890394 -0.44987583 0.11762455 -0.24607581 -0.26753083 -0.13469455 -0.32457164
0.17647801 -0.14296088 -0.029101303 0.073453754 -0.1088082 0.23603962 -0.076824315 -0.08562405
0.10895696 0.023218652 -0.11411805 -0.026941868 -0.22864196 -0.18106127 0.02884277 -0.17950667

fc1.bias f4 [256]
00000000: 13fe 063f df98 6abe a241 a73d 8fe4 313e
00000010: ce5a c73e f889 b0bc e2dd d53e d2aa 81be
00000020: 9463 fd3e 6d22 5abd 8eee bdbb 07b4 85bd
00000030: ee72 e0bb 594d 2dbd dd2d 163f b14c 433e
00000040: e1dc 99bc 8967 98be 908a a9bd ac9d 0dbe
00000050: aa7e 7bbc 8d4a 0a3d d577 d33e fedb 563c
00000060: b1d3 88bc 5036 30be bc4e c53e 5416 4d3e
00000070: 7aa9 6f3e 3d2d c93a d186 603e a005 423e
00000080: bba4 20be 4824 273e a3d8 433f d6d4 60bd
00000090: f44e 5ebd 76b4 463d f793 41bd 78fd 513e
000000a0: 7902 a33e 1019 68bd a757 efba 4765 4dbd
000000b0: 47bf 023f 353e 6ebd 7040 9b3e ab3a 18bf
000000c0: 192e ff3d bfbc 48be e231 953e 93d1 fabc
000000d0: 99a6 083f 51f2 9dbc 484d 7c3e 5e19 b43c
000000e0: bd3c 813e 3a2d e9bc 4624 1cbd 1811 0fbd
000000f0: ce1f 6abe f70d 6abc 628d cdbc 7085 73bd
00000100: 2f13 17be 0042 603e 6f75 c33e 18c4 9d3e
00000110: 8be5 453e 7980 d9bc c07e c5bd 6350 a33b
00000120: 40ab 123f c732 63be 2911 133f bec1 7bbd
00000130: 9a54 243e 164f c13c 497e 81be 68ea 2ebd
00000140: ea17 283f a030 6dbd f456 45bd 1fc0 7dbc
00000150: 3190 283e 2779 033e 2a17 7f3e 9982 4c3e
00000160: fb66 68bd cad3 86bd c304 68bd 205b f5bd
00000170: 8c2c 21bc e02f 0c3f 2c92 503e c0fa 5cbd
00000180: 7201 feba fe96 003e 9286 dbbd cf01 113f
00000190: 1ed1 083f 5a0d 933e 3d70 f4be 8fb5 77be
000001a0: ef16 173f 78ab 323e af4c dfbe 9b6a 0f3c
000001b0: 2719 343f f5e7 9bbc 1448 10ba fda8 1fbc
000001c0: 0d8f 98bd db54 553d b2f1 873c e9dc 1c3f
000001d0: ad5d e13c 9bc8 e63e 1ad9 353e c00d 323c
000001e0: 0a88 ae3d fece b3bd 85b3 1ebe f750 b6bc
000001f0: a203 203c d19f a1bc cc8f 7a3e f953 fc3e
00000200: 88a7 1a3d 9fb6 6a3d 409c fcbc 679d 803e
00000210: e6eb 5ebe d151 c63e 401b 03bd d703 043f
00000220: 6460 2ebd 67bc 62bd f05b 013d bee8 e7bd
00000230: 893f 8c3e 0c80 b13c 64e3 1f3e b18c 93bd
00000240: 9b73 47bc eee0 12be f2e3 7d3b fbe2 8bbd
00000250: b495 143e 242a 05bb eee4 393f 3cc0 b7bd
00000260: 3020 95bd c403 9cbd c682 a63b 06a8 aebd
00000270: 1eb7 233e b2cb cdbd 378e 8f3e 859b 0c3e
00000280: 58e6 023f 6c6f 2cbd 145c 35bd ae06 a5bd
00000290: cba9 6d3e e340 9cbc 58fc 5abc eb9e adbd
000002a0: 37c6 46be d5f0 1ebc 5405 d3bd fb64 1abd
000002b0: 2994 9cbe 14f4 193d b488 8ebd 0185 e13d
000002c0: 7927 3ebd 35ab 133e 06f6 f63e 92fd c03e
000002d0: ee1b 9dbd 12c3 0c3f 9439 113c a415 063e
000002e0: 189b 413f 3ed6 063f 4996 183f 1593 7a3e
000002f0: de42 123d a702 543e 250b 2fbd f9ce 5f3d
00000300: 82ba a83d 0761 49bd d2ad 3b3d 882a 993d
00000310: fff2 b3bc 2f77 25bd e071 84bd 588e ec3a
00000320: bfd0 1ebd 42e6 f13b 5a41 e7bc afca 5f3d
00000330: 5d09 3abd c3d1 fe3e f9d2 853b 334a 073f
00000340: a14e 4f3e cbdb 123f 4e7e b33e d3fd cab9
00000350: 02fd 61bd c633 2b3e 535d 39be 6d3d f3bc
00000360: 1fda 49bb 3957 b23e 99f5 8b3e 67f1 5fbc
00000370: 712c a7bd be1a 87bd bed4 063e f6f8 753d
00000380: 4eb1 503e 0379 aabd 6acf 38bd 6cf8 98bc
00000390: 4595 27bc 9f36 f9bc 911a 3ebd c8f9 4bbe
000003a0: c2e2 d1bc 2e2a 6abe c171 ae3d cb54 d63e
000003b0: efd8 92bd cdff 2f3e 0a95 c3be 591b a7bd
000003c0: 1119 07bc aeaf 89bd b1fb 2d3e f452 6538
000003d0: 05ee 2f3c 84b6 023f 934b f1bd 0af6 0dbd
000003e0: 5801 29bd 7b50 653e 526b 2f3c 0b9b d5bd
000003f0: b7cb 4bbd b496 c23c 6b41 a2be d126 efbd
0.52731436 -0.22909878 0.08166815 0.17372344 0.38936466 -0.021550164 0.41770846 -0.25325638
0.49490035 -0.053255487 -0.00579626 -0.06528478 -0.006849638 -0.042310093 0.5866373 0.19072224
-0.018782081 -0.2976649 -0.08278382 -0.13829678 -0.015350023 0.033762503 0.41302362 0.013113974
-0.016702505 -0.17208219 0.38536632 0.20028049 0.23404494 0.0015348565 0.21926428 0.18947458
-0.1568784 0.16322434 0.76502436 -0.054890476 -0.054274514 0.048511945 -0.04726025 0.20506847
0.31837824 -0.056664526 -0.0018260375 -0.050145414 0.51073116 -0.058164794 0.303226 -0.5946452
0.12459964 -0.19603251 0.2913962 -0.03061751 0.5337921 -0.019280585 0.24638855 0.021984752
0.25241652 -0.028463949 -0.03812053 -0.03492841 -0.22863695 -0.014285556 -0.02509183 -0.059453428
-0.14753412 0.21900177 0.38175532 0.3081367 0.19325845 -0.026550518 -0.09643316 0.004983948
0.57292557 -0.22187339 0.5744806 -0.061464064 0.16047898 0.023597281 -0.2529166 -0.042704016
0.6566149 -0.0579077 -0.048178628 -0.0154877 0.16461255 0.12839185 0.2491118 0.19971694
-0.056738835 -0.06583364 -0.056645166 -0.11980271 -0.009837281 0.5476055 0.2036826 -0.05395007
-0.0019379093 0.12557599 -0.107190266 0.56643385 0.5344409 0.28721124 -0.4774188 -0.24190353
0.5901937 0.17448223 -0.43613192 0.008753444 0.7035088 -0.019031504 -0.00055039045 -0.00974488
-0.0744916 0.052082878 0.016594741 0.6127458 0.027510488 0.45074925 0.17758599 0.010867536
0.08522041 -0.08779715 -0.15498169 -0.022255404 0.009766491 -0.019729527 0.24468917 0.49282816
0.037757427 0.057303067 -0.030836225 0.25120088 -0.21769676 0.38734296 -0.03200841 0.5156836
-0.042572394 -0.055355456 0.03158182 -0.11323689 0.27392223 0.021667503 0.15614086 -0.07204569
-0.012173559 -0.14343616 0.0038740602 -0.068304025 0.14510232 -0.0020319307 0.72614944 -0.08972213
-0.0728153 -0.07617906 0.0050815074 -0.08528142 0.15987822 -0.100486174 0.2803819 0.13731201
0.51132727 -0.042098448 -0.044277266 -0.08057915 0.23209302 -0.01907391 -0.0133658275 -0.08477577
-0.1941155 -0.0097009735 -0.10303751 -0.03769396 -0.30581787 0.037586287 -0.06959668 0.110116966
-0.046424363 0.14420779 0.48234576 0.3769346 -0.07671343 0.54985154 0.008863825 0.13094193
0.7562728 0.5267066 0.59604317 0.2447017 0.0357083 0.20704137 -0.042735238 0.054640744
0.082386985 -0.049164798 0.045820065 0.07478815 -0.021966456 -0.040396865 -0.064670324 0.0018047793
-0.038773295 0.007382185 -0.028229404 0.054636654 -0.045419086 0.4976941 0.004083988 0.52847594
0.20244838 0.5736663 0.350573 -0.00038717556 -0.055172928 0.16718969 -0.18102007 -0.029692376
-0.0030800176 0.3483217 0.27335814 -0.013668395 -0.081627734 -0.065968975 0.13167092 0.06005188
0.20380136 -0.083238624 -0.04511968 -0.018673144 -0.01022846 -0.030421553 -0.046412054 -0.19919503
-0.025620822 -0.22867653 0.085177906 0.41861567 -0.07170283 0.17187424 -0.38199645 -0.08159513
-0.008245722 -0.06722961 0.16990544 5.467511e-05 0.010737901 0.51059747 -0.11781993 -0.03465847
-0.041261047 0.22393982 0.0107067395 -0.10429963 -0.049754824 0.023753501 -0.31690535 -0.116773255

fc2.weight f4 [10, 256]
00000000: fbee d43d c6a9 133d 9cc2 8ebe f9c5 0b3e
00000010: a080 28be 1113 1bbd 48bb 053e bf0e 43be
00000020: dcd8 13be bd9b 783c e085 02be 7d55 29be
00000030: 75d9 6cbd 4418 40bc d9ce 203e de37 22bd
00000040: 9a2d ad3c 6e32 7d3d 168d 053e 3f19 ee3d
00000050: fbf7 1fbb 6492 ecbd 035c 77be c273 20bd
00000060: 451e 01be 25be 053e f204 ca3d 2fd0 4abd
00000070: 112f 80bd b5dd 143d 32c3 713b 7ec6 8d3e
00000080: 4f30 153d e94f 76bd 1732 8cbe c498 bbbc
00000090: d494 96bd aa2d 80be dfa1 4c3d d3ba dc3d
000000a0: 330e dabd d3c6 bf3d dfd0 b13c 6447 973c
000000b0: eeb7 8dbe 3e1c 72bd f163 10be acea 233d
000000c0: 1210 15bd c80b 4b3e c7a5 073e d93e 773c
000000d0: ec6b a43c 9852 8ebd b339 e83d 9533 75bc
000000e0: aeed 7d3d 517b 5dbd d6fa 543d e1d4 1f3d
000000f0: 46ba 0c3e 6649 4abd 3d3b d0bd eedc 37bd
00000100: c1a9 1d3e 8df2 eebc c63e 323e 883f 08be
00000110: e956 b43d 405b c9bd 1638 5b3e 1039 553c
00000120: 48b4 043e 0fa2 f83b a0d1 52bd 374b 103c
00000130: dd00 19be 0b6f a2bc 8318 c73d 6e09 76bd
00000140: 935d 84be 1477 9b3d 056c 8fbc fe11 1bbd
00000150: 4df1 1dbe edae b0bd 3bee b8bd 9197 9c3e
00000160: fb96 833a f2c6 f6bc 66ff cbbc 0e39 fdba
00000170: 2f5d f8bd 504d d83d 3639 c53d b44f 983d
00000180: 3f62 173d 3a21 30bd 1401 82bd a543 8abd
00000190: 5e89 43be 19f7 c5bd b40f 26bd 91df 3dbe
000001a0: d4e6 c53d 64b3 c03d 2997 a03d 565a 023d
000001b0: 7d3d 093c 3d8e 673d f597 08bd 724b 8abd
000001c0: 8e3a 10bd 90d2 e63d b3d9 783c 6c29 8bbe
000001d0: 6b88 a93c 0e93 7e3d e211 15be 20e2 8fbb
000001e0: 3c95 0bbd 3912 07be 2309 df3c 6600 26bd
000001f0: 3789 14bc e17e 8c3b bd10 453e ab4e fe3d
00000200: c77f d23d 30ab aabe 1aae 823c d3ed 7abd
00000210: ffec 343e 2d63 8e3d 9ab6 2c3e 36eb 66be
00000220: 762d 60bd e44b 1f3e 3164 08bd 36a9 993d
00000230: 9f26 d03d 0f4e 74bd bed1 a73d dd36 14bd
00000240: 8deb 893d d109 693d 9be0 b33b 6f79 36bd
00000250: c222 6a3d 4234 84be 2c23 c73d d937 c7bc
00000260: dd4c 393d 9c69 16bd 3c3a 6abd f0f6 483d
00000270: eed5 52be 9fc4 c93d cbd7 843b 2a54 68be
00000280: 30d3 cc3c 38d9 a83c dce0 bc3d b610 9ebc
00000290: 8cca 91bb b2e7 153e f9e7 83bd 25cc 5b3b
000002a0: cd59 bd3b 87b9 32bd 8a60 dd3b 63ff 5b3d
000002b0: f45c dcbd d048 603c d401 4dbd 533e adbd
000002c0: a7e2 70bd b1b6 22be 4d64 e6bd 7f50 bfbc
000002d0: e5fe 503d 2cb5 b0be a1a8 e3ba 6b9f 9f3d
000002e0: 39c4 4fbe c40a 8e3d a12e 1bbe 3af0 ce3d
000002f0: 38da 1a3d 3ac5 5fbe 10e1 443d d932 ac3d
00000300: 7137 4cbe 7c23 a73d 194c afbd 3fd6 72be
00000310: 206c d23c e195 a0bd 5b35 853b d5ce c83c
00000320: f40f 823d 6418 68bd 9ada e3bc fd39 243d
00000330: 0d23 92bc 01a6 dfbc aa78 2d3d 42cf c93d
00000340: 7b73 4bbe e7a8 d73d 60dc 4fbe 9943 5c3c
00000350: 43ac e83c a3b9 553d 6bdb 3fbd c713 07bb
00000360: a02d 1f3d 8221 b43d 9809 313d ff3d a9bc
00000370: 704e 8fbd 93cd d0bc b770 823d 3a71 a63d
00000380: f704 143e 3d1c 71bd 98be 63bd 0d67 64bd
00000390: 83ff e4bc 1a77 89bc 6947 27bd e38f ba3c
000003a0: 45b7 8fbc 2e0a ce3d c114 783d 8256 cbbd
000003b0: 4cc1 37bd a727 b9be 64cd 243d b1a6 50be
000003c0: 703a 463b f3ef 2d3a e681 27be ded7 983d
000003d0: d734 983c e07e f4bd 1798 b4bd 86e4 313d
000003e0: 4777 fcba 4985 003e 71a3 dabd 297b 953d
000003f0: f5d5 60bd 479b 863d c7af 1c3d bdfb 853d
0.103971444 0.03605058 -0.2788285 0.1364974 -0.16455317 -0.03785998 0.13059723 -0.19048594
-0.14438194 0.01517385 -0.12746382 -0.16536517 -0.05782457 -0.011724535 0.15703906 -0.03960406
0.021139909 0.06181567 0.13042101 0.11625909 -0.0024409282 -0.11551359 -0.24156193 -0.039172895
-0.12609203 0.13060816 0.098642245 -0.049514946 -0.06258977 0.03634425 0.0036890027 0.276905
0.036423024 -0.060134802 -0.27381966 -0.022899993 -0.073526055 -0.2503484 0.04995906 0.107778214
-0.106472395 0.093640946 0.021706043 0.018466659 -0.2767939 -0.059108965 -0.14100625 0.040018722
-0.03639228 0.19828713 0.13246833 0.015090668 0.020070992 -0.06949347 0.1133913 -0.014965911
0.061994247 -0.05407268 0.05199703 0.039021377 0.13742933 -0.049386404 -0.10167549 -0.04488843
0.15396787 -0.029168392 0.17406759 -0.13305485 0.08805639 -0.09831858 0.21408114 0.013014093
0.12959397 0.0075876783 -0.051469445 0.008806995 -0.14941736 -0.01982834 0.09721472 -0.060067587
-0.2585264 0.07591072 -0.017507562 -0.037858956 -0.1542408 -0.086271144 -0.09029814 0.30584386
0.0010039503 -0.030124161 -0.024902057 -0.0019319372 -0.12127148 0.10561621 0.09630053 0.07437077
0.03695893 -0.043000437 -0.06347862 -0.067511834 -0.1909537 -0.09666271 -0.04054232 -0.18542315
0.096631676 0.09409216 0.078413315 0.031824432 0.008376476 0.056532133 -0.033348043 -0.06752671
-0.035212092 0.1127063 0.015188622 -0.2718004 0.020694932 0.06215196 -0.14557603 -0.00439097
-0.034077868 -0.13190545 0.027226036 -0.040527724 -0.009065918 0.004287586 0.19244666 0.124173485
0.10278278 -0.3333373 0.015952159 -0.061261963 0.17668532 0.0695251 0.16866532 -0.22550663
-0.054730855 0.15556294 -0.033298675 0.075029776 0.101636164 -0.059644755 0.08194302 -0.036185134
0.06734381 0.056894127 0.0054894215 -0.0445494 0.057162054 -0.2582112 0.097235054 -0.024318622
0.04523932 -0.03672181 -0.057184443 0.049063623 -0.2058942 0.098519556 0.004054045 -0.22688356
0.025003046 0.02061139 0.09222576 -0.019295078 -0.0044491943 0.14639166 -0.0644073 0.0033538428
0.0057785274 -0.043633964 0.006755893 0.053710353 -0.10759917 0.013689235 -0.05005057 -0.08459153
-0.058809903 -0.15890004 -0.112495996 -0.023353813 0.051024336 -0.34513223 -0.0017368981 0.077940784
-0.20289697 0.06935647 -0.15154506 0.10104413 0.037805766 -0.2185258 0.0480662 0.08408136
-0.19943024 0.08161065 -0.08559436 -0.23714541 0.025686324 -0.07841087 0.0040651984 0.024512688
0.06350699 -0.056663886 -0.027814198 0.040094364 -0.01783898 -0.027300837 0.042351402 0.098539844
-0.19868271 0.105302624 -0.2029891 0.013443851 0.028402453 0.05217899 -0.046840113 -0.0020611153
0.03886187 0.087954536 0.04322204 -0.020659445 -0.06997383 -0.02548865 0.06369155 0.08127065
0.14455019 -0.05886482 -0.055601686 -0.05576234 -0.027953869 -0.016780425 -0.040839586 0.022773689
-0.017543444 0.10060535 0.060566667 -0.099286094 -0.044862077 -0.36163065 0.04023494 -0.20376088
0.0030247234 0.00066351815 -0.16358146 0.074630484 0.018579884 -0.11938262 -0.08818071 0.043430828
-0.0019261622 0.12550844 -0.10675705 0.072988816 -0.054891545 0.065725856 0.03825357 0.06542156

fc2.bias f4 [10]
00000000: 65e2 91be 420e 7bbe 4401 23be 2dce a53e
00000010: 2a9c be3e 6505 02be 8342 003e c115 5ebe
00000020: 4a56 6f3e 0478 02bd
-0.28493038 -0.24517158 -0.15918452 0.32383862 0.3722852 -0.1269737 0.12525372 -0.21687986
0.2337276 -0.031852737
